Ejajan_recommendation_model.tflite (tflite, 274464 bytes, 8 tensors)

arith.constant1 f4 [1, 64]
0	0xbd6887db	-0.056770187
1	0x3e71b59a	0.23604432
2	0xbdf66e48	-0.12032753
3	0x3e8ab9d6	0.27094907
4	0x3e7d2acc	0.24723357
5	0x3e9cc784	0.30620968
6	0xbe7a7cef	-0.24461721
7	0xbe0819eb	-0.13291137
8	0x3e735a8f	0.23765014
9	0xbe4db3fa	-0.20088187
10	0xbe41cd03	-0.18925862
11	0xbd1cec05	-0.038311023
12	0x3e35d438	0.17756736
13	0xbe8fbb3b	-0.28072533
14	0xbc9c6c7c	-0.019094698
15	0xbc2b0149	-0.010437318
16	0xbe819ccb	-0.25314936
17	0x3e7c3b97	0.24632107
18	0x3e91ccb9	0.28476503
19	0xbdcc201c	-0.09967062
20	0xbcd0ca2e	-0.025487032
21	0xbca66034	-0.020309545
22	0x3e85ac7b	0.26108155
23	0xbd03bb7a	-0.032161213
24	0x3e33dc08	0.17564404
25	0x3e230267	0.15918885
26	0x3e69d7aa	0.22836176
27	0xbe260bdf	-0.16215466
28	0x3b174a39	0.0023085012
29	0x3e5609ef	0.20902227
30	0xbe82dbf7	-0.25558445
31	0x3e8066b8	0.25078368
32	0x3e9ac30f	0.30226943
33	0x3dd8b098	0.105805576
34	0x3e333cac	0.17503613
35	0x3e6556c3	0.22396378
36	0x3e8d5dac	0.27610528
37	0x3b718207	0.0036851184
38	0x3e480b6e	0.1953561
39	0xbe5e4d40	-0.21709156
40	0x3e805342	0.2506352
41	0x3e886f27	0.26647303
42	0x3d9cc484	0.0765467
43	0x3e926bd7	0.285979
44	0x3cbd8e25	0.023139069
45	0x3e91ba66	0.28462523
46	0x3d9b61dd	0.07587025
47	0xbdf6f420	-0.12058282
48	0xbc1a32fb	-0.009411569
49	0x3e050d70	0.12993407
50	0xbd890d1d	-0.06691954
51	0xbe7cc6e9	-0.24685253
52	0x3e6272ed	0.22114153
53	0xbd7ae392	-0.061252184
54	0x3d0ebf2d	0.03485029
55	0x3e1941a0	0.1496644
56	0x3e0dda9d	0.13852926
57	0x3e0f178c	0.13973826
58	0xbe4ba9dc	-0.19889015
59	0x3e909301	0.28237155
60	0x3e8da09d	0.276616
61	0xbe5cfcfe	-0.21580884
62	0x3e821840	0.25409126
63	0xbe64ebc2	-0.2235556

arith.constant2 f4 [64, 128]
0	0x3cafcbe7	0.021459533
1	0x3d263c06	0.040584587
2	0x3e2c0bf4	0.16801435
3	0xbb998e69	-0.004686166
4	0x3e1c12e9	0.15241589
5	0xbd270a39	-0.040781233
6	0x3b23e3c1	0.0025007578
7	0xbdbb2d49	-0.09139497
8	0xbddf7021	-0.10910059
9	0xbdc5a61d	-0.09650824
10	0xbdf2fcf9	-0.11864657
11	0xbdd16cae	-0.10225807
12	0x3d8b9ad2	0.06816639
13	0xbdf1dfc8	-0.11810261
14	0x3e201ece	0.15636751
15	0x3db80c20	0.08986688
16	0xbe0a80f3	-0.13525753
17	0xbe11930d	-0.14216252
18	0x3ca96059	0.020675825
19	0x3c25db13	0.010123032
20	0x3e13c83c	0.14431852
21	0x3df97bf4	0.12181845
22	0x3dec5914	0.11540428
23	0xbdba2425	-0.09088925
24	0x3dd79566	0.10526542
25	0x3d37fa22	0.04491628
26	0x3de67a0f	0.112537496
27	0xbdc1f285	-0.09470085
28	0x3c863c99	0.016386317
29	0x3d6bb17f	0.05754232
30	0x3e18a3cd	0.14906235
31	0xbe246fb7	-0.16058241
32	0xbe1c3421	-0.1525426
33	0x3e271986	0.1631833
34	0xbc9241ed	-0.017853701
35	0x3e004816	0.12527499
36	0xbdfc0882	-0.1230631
37	0xbe0ba540	-0.13637257
38	0x3e34e300	0.17664719
39	0x3e15e61e	0.14638564
40	0xbdd3a733	-0.10334625
41	0xbd7e7b42	-0.062129267
42	0x3d995859	0.07487554
43	0x3e2ccd24	0.1687513
44	0x3c2c6c0a	0.010523805
45	0xbe0430cb	-0.12909238
46	0x3dc9dd10	0.098566175
47	0x3e0dc122	0.13843206
48	0x3dee0fb4	0.11624089
49	0x3b8c8203	0.0042879595
50	0xbde54e1a	-0.11196537
51	0x3de13da9	0.10998089
52	0xbd9121e8	-0.07086545
53	0xb9d89069	-0.00041306324
54	0xbe036ca1	-0.12834407
55	0xbe0c4fd6	-0.1370233
56	0xbdf71876	-0.120652124
57	0xbd39413f	-0.04522824
58	0xbd78532e	-0.0606262
59	0x3d40e4a0	0.047093034
60	0x3c0c7ca5	0.008574639
61	0xbd79d60a	-0.06099514
62	0x3d31fc11	0.04345328
63	0x3dde71e5	0.108615674
64	0xbdbe03ff	-0.09278106
65	0xbd5f658d	-0.054540206
66	0xbcdd9b15	-0.027051488
67	0x3d68bc73	0.056820344
68	0x3ddf2800	0.10896301
69	0x3ded52d3	0.11588063
70	0xbe21757f	-0.15767477
71	0x3dc25839	0.094894834
72	0xbc156da3	-0.009120378
73	0x3e08a252	0.1334317
74	0x3c001804	0.007818226
75	0x3d1afbde	0.037837856
76	0x3d95450d	0.07288561
77	0x3c89280c	0.016742729
78	0x3de56cbd	0.11202381
79	0xbe29eca0	-0.16594172
80	0x3d1afc01	0.037837986
81	0x3e2fcb12	0.17167309
82	0x3d18bd17	0.037289705
83	0x3dcb1be8	0.09917432
84	0x3d597c2b	0.05309693
85	0x3d5252bd	0.051348437
86	0x3e26036b	0.16212241
87	0x3d787703	0.060660373
88	0x3df6ebed	0.12056718
89	0x3d3ed185	0.046586532
90	0x3cdecba1	0.027196707
91	0xbc24861f	-0.010041743
92	0x3d0818ba	0.033226706
93	0xbce87e4a	-0.028380532
94	0x3dce556a	0.10074885
95	0xbe1b5820	-0.15170336
96	0x3dec1352	0.115271226
97	0xbdc7da18	-0.09758395
98	0xbd9df195	-0.07712094
99	0xbd598bd1	-0.053111855
100	0x3cb0decd	0.021590615
101	0xbe13cd8d	-0.1443388
102	0x3e121d2f	0.14268945
103	0x3df48f46	0.1194139
104	0xbd04828e	-0.03235107
105	0xbc91c924	-0.017796107
106	0x3d9d0173	0.07666292
107	0x3cedd3ae	0.0290316
108	0x3ddd90f1	0.10818661
109	0xbc2aa1ee	-0.010414584
110	0x3e0fb35b	0.14033262
111	0xbc5d9a4d	-0.013525558
112	0x3dc33bf8	0.095329225
113	0xbd92c4ad	-0.07166419
114	0xbe257430	-0.16157603
115	0x3bb68b7b	0.0055708266
116	0x3d8342e0	0.0640924
117	0xbc1053a0	-0.008809
118	0x3de3babf	0.11119603
119	0x3decc336	0.11560671
120	0xbd8c9e31	-0.0686611
121	0x3c99bb0d	0.01876595
122	0xbe1d94ad	-0.15388747
123	0xbd6fc043	-0.058532964
124	0xbcf986a0	-0.030459702
125	0x3c92b24f	0.01790729
126	0xbdad60fc	-0.08465764
127	0xbdde09af	-0.10841691
128	0x3cd2155d	0.025644952
129	0x3e2c47e0	0.16824293
130	0x3dea212a	0.11432107
131	0xbde990d8	-0.1140458
132	0xbbffa358	-0.0078014545
133	0xbdcc916f	-0.09988677
134	0xbbf17a3a	-0.007369307
135	0xbdd4e704	-0.10395625
136	0xbcef465f	-0.02920836
137	0x3df74bea	0.12075026
138	0xbe235ba6	-0.1595293
139	0x3df4931c	0.119421214
140	0x3e040252	0.1289151
141	0xbd9b15fb	-0.07572552
142	0x3d27881d	0.040901292
143	0x3cd36155	0.025803247
144	0xbd18fe58	-0.037351936
145	0x3d39fe45	0.045408506
146	0xbda3895c	-0.079851836
147	0xbde08b9b	-0.10964128
148	0x3d49c2f3	0.049258184
149	0x3d710336	0.058840953
150	0x3c275ade	0.0102145355
151	0x3ddc2fbb	0.10751291
152	0xbdccf26b	-0.10007175
153	0xbe0a8e3f	-0.13530825
154	0xbda6fcd5	-0.08153693
155	0xbc439ff5	-0.011939992
156	0x3e0d2063	0.13781886
157	0xbbb51957	-0.0055267024
158	0x3d612e0f	0.054975566
159	0x3e06e972	0.1317499
160	0xbba51ad9	-0.005038601
161	0xbdfd4750	-0.123671174
162	0xbc8c755d	-0.017145807
163	0xbe32d7d4	-0.17465144
164	0x3e2d140d	0.1690218
165	0x3e25eba8	0.16203177
166	0x3e0eedf1	0.13957955
167	0xbd1cd5e2	-0.038289912
168	0xbb6ee8ea	-0.0036454746
169	0x3e11ea36	0.142495
170	0x3e23333e	0.15937516
171	0x3bd2e836	0.006436373
172	0x3e32931c	0.1743893
173	0x3d15e6d6	0.036597095
174	0x3dd59032	0.10427894
175	0xbd881e9a	-0.06646462
176	0x3df07347	0.117407374
177	0x3e2ca0be	0.16858193
178	0x3e109b12	0.14121655
179	0x3d0314a3	0.032002103
180	0x3d146322	0.036227353
181	0x3e17b14d	0.14813729
182	0x3c3d6c89	0.011561521
183	0x3dcc8e6f	0.099881046
184	0x3b920003	0.004455568
185	0xbdec5e46	-0.11541419
186	0xbd81d58d	-0.0633956
187	0xbe19d3ca	-0.15022197
188	0x3d860dad	0.06545577
189	0xbd677331	-0.05650634
190	0xbc3067a3	-0.010766896
191	0x3cc6a21c	0.024247222
192	0xbe2c6e62	-0.16838983
193	0xbd875b14	-0.06609169
194	0xbe321430	-0.17390513
195	0x3e1500ce	0.14551088
196	0xbdeba47e	-0.11505984
197	0x3e2e8e1a	0.17046395
198	0xbdf1a948	-0.11799866
199	0xbdfc7cb9	-0.123284765
200	0xbda4428f	-0.080205075
201	0xbda47820	-0.080307245
202	0xbe05bb08	-0.13059628
203	0x3cb38dfa	0.021918286
204	0xbd15c6f6	-0.036566697
205	0x3e131425	0.14363153
206	0x3de6c51f	0.112680666
207	0x3db07fc9	0.08618123
208	0xbd5b87c8	-0.053596288
209	0xbd0de7c9	-0.034644876
210	0xbdd9ea6c	-0.106404155
211	0x3e04ca57	0.12967812
212	0xbe024e62	-0.12725213
213	0xbde41bc7	-0.111381106
214	0x3e0316bf	0.12801646
215	0x3e2ac13c	0.16675276
216	0x3ddbff49	0.10742051
217	0x3dfc5a03	0.12321856
218	0xbe07c0ec	-0.13257188
219	0x3dfd5ced	0.1237124
220	0xbe1f839d	-0.1557755
221	0xbd9518da	-0.07280131
222	0xbdf6889e	-0.120377764
223	0x3dfb6783	0.12275603
224	0x3c4f0eba	0.012637788
225	0x3df05983	0.11735823
226	0xbdd4887d	-0.103775956
227	0x3b9c2f30	0.0047663674
228	0xbd3c40f0	-0.045960367
229	0xbdf71f0b	-0.12066468
230	0xbe173464	-0.14766079
231	0xbe005b93	-0.12534933
232	0x3cf29b9c	0.029615216
233	0xbc84124b	-0.016122004
234	0x3c94b178	0.01815103
235	0x3e1e8d8f	0.15483688
236	0xbc950797	-0.018192096
237	0x3e0cc15e	0.13745639
238	0xbdb09588	-0.08622271
239	0x3e204008	0.15649426
240	0x3d9f649c	0.077828616
241	0xbd8b776e	-0.06809889
242	0x3e337b8c	0.17527598
243	0x3d87d41f	0.06632256
244	0x3da14776	0.07874958
245	0xbd86cd76	-0.06582157
246	0xbd8195a2	-0.06327368
247	0x3cda1bb3	0.026624536
248	0x3ab61003	0.001389027
249	0x3dd4343a	0.10361524
250	0xbd397ebb	-0.045286875
251	0xbe1d0b12	-0.15336254
252	0x3e05294e	0.13004038
253	0xbe27a974	-0.16373235
254	0xbcaed115	-0.021339932
255	0xbe15336a	-0.14570394

arith.constant3 f4 [128, 200]
0	0xbd89b85a	-0.067246154
1	0xbca64b60	-0.020299613
2	0x3da8777f	0.08225917
3	0xbc7a8e29	-0.015292683
4	0x3d2fd9c4	0.042932287
5	0x3caeb95b	0.021328619
6	0x3d75ff5a	0.060057975
7	0xbd46a2c7	-0.04849508
8	0xbdf00262	-0.117192045
9	0x3dea9c8a	0.11455639
10	0xbe0a3366	-0.1349617
11	0x3dab2d66	0.083582684
12	0xbd8e7347	-0.06955581
13	0x3dc19755	0.094526924
14	0x3d7a93e1	0.061176185
15	0xbcbcb7f6	-0.023036938
16	0x3b9cbaa2	0.0047829906
17	0x3e007f01	0.12548448
18	0xbe048dc9	-0.12944712
19	0x3dd3683b	0.10322615
20	0x3ce05e19	0.02738862
21	0x3dbb045f	0.09131693
22	0x3e089807	0.13339244
23	0xbe00e0b9	-0.12585725
24	0xbb64873f	-0.0034870652
25	0x3d83e80e	0.06440745
26	0x3e01699f	0.12637947
27	0xbd719a86	-0.058985256
28	0x3dbab18c	0.09115896
29	0xbd77cf6b	-0.060500544
30	0x3baa5619	0.005198252
31	0x3d641c6d	0.05569117
32	0x3cd12c82	0.025533918
33	0x3e068d32	0.13139799
34	0x3de0067d	0.109387375
35	0xbdb07044	-0.08615163
36	0xbd73c068	-0.059509665
37	0x3d431712	0.047629423
38	0x3d633782	0.05547286
39	0x3dbf497c	0.09340188
40	0xbb1abc35	-0.0023610715
41	0x3d7aded7	0.061247673
42	0x3cd7f6da	0.026362825
43	0x3e011d0e	0.1260874
44	0x3c1f1bc3	0.009711209
45	0x3de49957	0.1116206
46	0xbde7c2d3	-0.11316457
47	0x3d98546d	0.07437978
48	0x3dc5a55b	0.0965068
49	0xbdca4259	-0.09875936
50	0xbe06a835	-0.13150103
51	0xbdb2e331	-0.087347396
52	0x3b512295	0.0031911482
53	0xbda0ca45	-0.0785108
54	0x3d3f9525	0.046773095
55	0x3cfd6548	0.030932084
56	0x3d9d4b1d	0.07680342
57	0x3d0fb1b3	0.035081577
58	0xbda65eaf	-0.08123528
59	0x3dda4177	0.10657018
60	0x3e07a872	0.1324785
61	0x3cce79a8	0.025204495
62	0xbd44fd87	-0.048093345
63	0xbc81bee5	-0.015838096
64	0xbdc794bb	-0.09745165
65	0xbce5b73b	-0.028041473
66	0xbd1bc97c	-0.038033947
67	0xbdf2502e	-0.11831699
68	0xbdc3e4ed	-0.095651485
69	0xbdae0070	-0.08496177
70	0x3dbd4559	0.09241743
71	0x3d2b7924	0.041863576
72	0x3d6405c8	0.055669576
73	0xbdce711c	-0.10080168
74	0xbbe190be	-0.0068837097
75	0xbdbd852d	-0.09253917
76	0x3c435231	0.011921451
77	0x3c58a583	0.013223055
78	0x3c92b79f	0.017909823
79	0x3df5f5c3	0.12009766
80	0xbc8163f9	-0.015794741
81	0xbda1a219	-0.07892246
82	0x3d56a510	0.05240351
83	0x3d375d7b	0.044766884
84	0x3dba1157	0.090853386
85	0x3d0e7db7	0.03478786
86	0xbc2ca750	-0.010537937
87	0x3bf052fc	0.0073341113
88	0x3d88fd93	0.066889904
89	0xbdd2670b	-0.1027356
90	0x3e03c88a	0.12869468
91	0x3cbb6b08	0.022878185
92	0x3da171ef	0.07883059
93	0xbd0fb988	-0.035089046
94	0x3da21db9	0.079158254
95	0x3dc9dc78	0.09856504
96	0x3dee4d1f	0.116358034
97	0x3bf005f3	0.007324928
98	0xbd0d507a	-0.034500577
99	0x3d583817	0.052787866
100	0xbdf44c70	-0.11928642
101	0xbdb0ff0a	-0.08642395
102	0xbd535fa5	-0.051604886
103	0x3d5b29ee	0.053506784
104	0xbcd8d8e7	-0.026470615
105	0xbcdf9c5b	-0.027296236
106	0xbd7a9322	-0.061175473
107	0x3e01cf47	0.12676726
108	0xbcc2470d	-0.02371552
109	0x3dba7de3	0.09106042
110	0x3ca3072e	0.019900884
111	0x3cefe4a5	0.02928383
112	0x3db5a7c3	0.08869889
113	0x3c89519e	0.01676255
114	0xbc85e676	-0.016345244
115	0x3d308d95	0.043103773
116	0xbdf5187a	-0.11967559
117	0xbe04994c	-0.12949103
118	0x3dba6887	0.09101968
119	0x3d3a6d59	0.04551444
120	0x3dafbbaa	0.08580716
121	0xbd89d291	-0.067296155
122	0xbe09eb33	-0.13468628
123	0x3dbde4be	0.09272145
124	0x3e01ae20	0.1266408
125	0x3db4cfb1	0.088286765
126	0x3d448b1d	0.04798423
127	0x3df36d6a	0.118861035
128	0x3dd39969	0.10331995
129	0x3c593810	0.013257995
130	0x3ce481c8	0.027893916
131	0xbc286c5b	-0.01027974
132	0x3e092459	0.13392772
133	0x3d937a10	0.07201016
134	0xbdb2554e	-0.08707677
135	0xbc0856f3	-0.008321512
136	0xbde8c37d	-0.113654114
137	0x3d865407	0.06558996
138	0xbdf6f552	-0.1205851
139	0xbde1621c	-0.11005041
140	0x3d9f5a4b	0.07780894
141	0x3d44d47a	0.048054196
142	0x3d6a4f97	0.05720481
143	0xbdf03c3f	-0.11730241
144	0x3e0666b4	0.13125116
145	0x3de5e381	0.112250336
146	0xbca1adb4	-0.019736148
147	0xbc03c8cb	-0.008043478
148	0x3cf97891	0.030452998
149	0x3d76d78c	0.060264155
150	0x3ce0a58b	0.027422687
151	0x3df65996	0.12028806
152	0x3d8bc518	0.06824702
153	0xbdd1c1ae	-0.102420196
154	0xbd0bbdeb	-0.034116667
155	0xbd404bc2	-0.04694725
156	0xbdc9a538	-0.09845966
157	0xbce9cbb9	-0.028539525
158	0x3bc28016	0.005935679
159	0xbdafefa4	-0.0859063
160	0xbdd04aa1	-0.10170484
161	0x3e091404	0.13386542
162	0xbdb42781	-0.08796597
163	0xbd13867e	-0.036016934
164	0xbd848625	-0.064708985
165	0xbe032472	-0.12806872
166	0x3d8393fd	0.06424711
167	0x3d155a93	0.03646333
168	0xbd1c9e7b	-0.038237076
169	0x3d46da79	0.048548196
170	0xbdaf0f57	-0.08547848
171	0xbd8b0a7b	-0.06789108
172	0x3dd45999	0.10368652
173	0x3dd13024	0.1021426
174	0xbd671adf	-0.05642211
175	0x3e0118e5	0.12607153
176	0x3b90c629	0.004418154
177	0xbe078ef3	-0.13238125
178	0xbdb9e28b	-0.09076413
179	0x3de19e93	0.11016574
180	0xbdbc49db	-0.09193774
181	0xbc209c8a	-0.009802947
182	0xba271794	-0.0006374058
183	0xbdfbd8e3	-0.12297227
184	0x3dbd17be	0.09233044
185	0x3ddb3668	0.107037365
186	0x3e002789	0.12515081
187	0x3d820ab7	0.063497
188	0x3dc01ac8	0.09380108
189	0x3d95f430	0.07321966
190	0xbdd04823	-0.10170009
191	0xbd91f350	-0.07126486
192	0xbc88485b	-0.016636064
193	0xbd086fe4	-0.033309832
194	0xbddf16fc	-0.10893056
195	0xbdb6cdb5	-0.08925954
196	0x3da88c88	0.08229929
197	0x3db650c1	0.08902121
198	0xbdc9bd45	-0.098505534
199	0x3de17f40	0.11010599
200	0xbc1b55ac	-0.009480875
201	0x3c90cbde	0.017675336
202	0xbd8b3227	-0.06796675
203	0x3d8982f1	0.06714428
204	0x3deff93c	0.117174596
205	0x3c5db8b8	0.01353281
206	0xbdcdb318	-0.10043925
207	0x3d837dca	0.06420477
208	0xbd89e1d0	-0.067325234
209	0x3d9e1436	0.07718699
210	0xbdde0456	-0.10840671
211	0xbe05b0ad	-0.13055678
212	0x3dfe02a1	0.12402845
213	0xbd879775	-0.06620685
214	0x3cf807fd	0.030277247
215	0x3da9079a	0.08253403
216	0xbd429729	-0.04750744
217	0xbd82b2f3	-0.06381788
218	0x3de7125d	0.112827994
219	0x3d615243	0.05501009
220	0x3dedd4d1	0.11612857
221	0x3c046795	0.0080813365
222	0x3dc17816	0.09446733
223	0xbd72098f	-0.059091147
224	0xbcaaf6da	-0.020869661
225	0x3d795983	0.06087638
226	0x3d189201	0.037248615
227	0x3d16dbf4	0.036830857
228	0xbd911738	-0.07084507
229	0x3bac1984	0.005252065
230	0x3d9ff4e8	0.07810384
231	0x3e03d839	0.12875451
232	0x3d491b40	0.049098253
233	0xbddd9040	-0.10818529
234	0x3dc7665d	0.09736321
235	0x3dd7eef8	0.105436265
236	0xbdb56904	-0.08857921
237	0x3dcdcb0e	0.10048495
238	0xbd65bc7e	-0.056087963
239	0x3d702952	0.058633156
240	0x3cf2c2db	0.02963393
241	0x3d5571aa	0.05211035
242	0xbdee4b8b	-0.116355024
243	0xbcca0f5f	-0.024665533
244	0xbde3891a	-0.111101344
245	0x3d8e7f88	0.069579184
246	0x3dc2f136	0.095186636
247	0x3de6a653	0.112621926
248	0x3df6170f	0.12016117
249	0xbdc33302	-0.09531213
250	0x3d6a387a	0.057182766
251	0xbdc20048	-0.0947271
252	0xbd98fa2e	-0.07469593
253	0xbd1f7605	-0.03893091
254	0xbce7c467	-0.028291894
255	0xbd81ddde	-0.06341146

arith.constant4 f4 [306, 50]
0	0x39bbe329	0.00035836667
1	0xbce39e23	-0.027785366
2	0x3d24954c	0.040181443
3	0x3d07817c	0.03308247
4	0x3d46fcf2	0.04858107
5	0x3cedd4fc	0.029032223
6	0x3c857dda	0.016295362
7	0x3d3e922e	0.046526127
8	0x3c539334	0.012913514
9	0xbd476b41	-0.04868627
10	0x3b1f0d58	0.0024269428
11	0x3d0653e3	0.032794844
12	0x3c5ac95b	0.013353671
13	0xbd3bc432	-0.045841403
14	0x3cbd61b3	0.023117876
15	0x3c4f0790	0.01263608
16	0x3d0d644f	0.03451949
17	0xbc7fd2d9	-0.015614235
18	0xbc67a673	-0.014138806
19	0xbd02add5	-0.03190406
20	0x3c473e9f	0.012160926
21	0xbd0aab15	-0.033854563
22	0xbd3c5619	-0.045980547
23	0xbc93264b	-0.017962595
24	0xbd1241f9	-0.035707448
25	0x3d4a349d	0.049366582
26	0x3d063b0a	0.032771148
27	0xbcd055ef	-0.025431601
28	0xbd1513c7	-0.036395814
29	0x3d199afe	0.037501328
30	0x3ccd0233	0.025025463
31	0x3cafb10b	0.021446725
32	0x3d13aa16	0.03605088
33	0xbbe3a92a	-0.006947656
34	0xbd19a2a4	-0.03750862
35	0x3c25f100	0.01012826
36	0x3d47ba12	0.048761435
37	0xbd275312	-0.040850706
38	0xbcbe6271	-0.0232403
39	0xbcdfd9eb	-0.027325591
40	0xbd01c73e	-0.031684153
41	0x3d1aacbb	0.037762385
42	0xbc6689b4	-0.014070917
43	0xbc848207	-0.016175283
44	0x3bf4f169	0.0074750674
45	0x3cad8889	0.02118327
46	0x3c9c5ce0	0.019087255
47	0x3b846520	0.0040403754
48	0xbc186775	-0.00930201
49	0xbbd0bc20	-0.0063700825
50	0x3d4630c7	0.04838636
51	0xbb6dbc00	-0.0036275387
52	0xbc8ea5a0	-0.01741296
53	0x3cecb662	0.02889556
54	0xbc9c0380	-0.019044638
55	0x3b9c2c18	0.0047659986
56	0x3bdfb298	0.00682671
57	0x3d251da7	0.04031148
58	0xbd329fe7	-0.043609526
59	0xbcd8880d	-0.026432062
60	0xbcb1f1ad	-0.021721685
61	0xbcf8d3a7	-0.030374361
62	0x3ccaa812	0.024738345
63	0x3ba47b50	0.005019583
64	0xbcb8eb4d	-0.022573138
65	0xbd257f40	-0.04040456
66	0xbd2b70a6	-0.041855477
67	0xbc58d468	-0.013234235
68	0x3d033959	0.032037113
69	0xbd200f53	-0.039077114
70	0x3d2c4c01	0.04206467
71	0x3ca51786	0.020152818
72	0xbb27aea0	-0.0025586262
73	0x3bdd8568	0.006760288
74	0x3d0ee3bd	0.034885157
75	0xbd3915d0	-0.045186818
76	0x3cd03fd2	0.025421057
77	0xbd285816	-0.04109963
78	0x3d0c8f6d	0.03431647
79	0xbb295a30	-0.002584111
80	0x3bd48568	0.00648563
81	0xbc83d0f4	-0.016090848
82	0xbd214b90	-0.039378703
83	0x3cc8e0d2	0.024521265
84	0xbcac2747	-0.021014823
85	0x3d3e222d	0.04641931
86	0xbcf5cd40	-0.030005097
87	0xbc3d7698	-0.0115639195
88	0x3cdbff42	0.026855115
89	0xbcd36d7a	-0.025809038
90	0xbd020aad	-0.031748462
91	0xbaa7b940	-0.0012796298
92	0xbcacb22d	-0.021081055
93	0xbcf15bd3	-0.02946273
94	0x3cca51a2	0.024697129
95	0x3d268b4d	0.04066019
96	0x3cb26d4e	0.021780636
97	0x3d2b98dd	0.04189383
98	0x3d038e73	0.032118272
99	0xbd00ea9a	-0.031473733
100	0xbc53a7e8	-0.01291845
101	0xbcb1d947	-0.021710051
102	0x3d35d557	0.04439291
103	0x3d145dad	0.03622215
104	0x3bbe7418	0.0058121793
105	0x3cebd7fa	0.02878951
106	0x3d2a4171	0.041566316
107	0x3d13bdcd	0.03606968
108	0x3d0305c1	0.03198791
109	0xbcbe62cd	-0.023240471
110	0xbd26e31d	-0.040743936
111	0x3cc14cc6	0.023596179
112	0xbd006676	-0.031347714
113	0x3c84be72	0.016204093
114	0x3d2560bd	0.04037546
115	0xbd09a524	-0.033604756
116	0xbc5da218	-0.013527416
117	0xbd4a6a83	-0.049417984
118	0xbd3ac77a	-0.045600392
119	0xbd05998a	-0.03261713
120	0x3cc16f72	0.023612712
121	0xbcce8fe7	-0.025215102
122	0xbbd0eb80	-0.00637573
123	0x3c72459c	0.014787104
124	0xbcc5930d	-0.02411797
125	0xbbceb050	-0.006307639
126	0x3ce987f2	0.028507207
127	0xbd351337	-0.044207778
128	0xbcbc7347	-0.023004187
129	0xbd1a7b9a	-0.037715532
130	0x3a9bc8c0	0.001188539
131	0x3ce2a246	0.027665269
132	0x3cc3819a	0.02386551
133	0xbc4f74b4	-0.012662102
134	0xbbb15018	-0.0054111592
135	0xbc9a3e3a	-0.0188285
136	0x3d111789	0.035422835
137	0x3cadc672	0.02121279
138	0xbd146213	-0.036226343
139	0xbc1482c0	-0.009064376
140	0xbd180323	-0.037112366
141	0x3ad25660	0.001604747
142	0xbd2278ed	-0.039666105
143	0xbacbdd40	-0.0015553609
144	0xbccc1aba	-0.024915088
145	0xbce376c7	-0.027766598
146	0x3d294f99	0.041335676
147	0xbc967e5a	-0.018370796
148	0xbd29c97d	-0.04145192
149	0xbd10cc53	-0.03535111
150	0xbc9d3be5	-0.019193599
151	0x3cde8c45	0.027166495
152	0x3d1480eb	0.03625576
153	0xbcd71e1e	-0.026259478
154	0x3cac4aae	0.021031704
155	0xbd3246d2	-0.04352457
156	0xbd126ae3	-0.035746466
157	0x3d3ee8f6	0.046608888
158	0x3bd072d2	0.006361344
159	0x3caacc67	0.02084942
160	0x3c4a2744	0.012338463
161	0x3d22249f	0.039585706
162	0x3c3d109b	0.011539604
163	0xbd449718	-0.047995657
164	0xbd4804fd	-0.048832882
165	0x3ad0228f	0.001587944
166	0xbd2d6002	-0.04232789
167	0x3c271b2a	0.0101993475
168	0xbc589b6b	-0.013220648
169	0xbb9c5f07	-0.0047720703
170	0x3ca6c1fe	0.020356175
171	0xbca139ef	-0.019680945
172	0x3cc42ce4	0.023947187
173	0xbd4409dd	-0.04786097
174	0xbd114f8a	-0.035476245
175	0x3c7c44bb	0.015397246
176	0xbbb24b03	-0.005441071
177	0xbd442d76	-0.047894917
178	0x3cb14f96	0.021644395
179	0x3d07657e	0.033055775
180	0xbb3d15b9	-0.002885206
181	0x3cede740	0.029040933
182	0x3d2014a1	0.039082173
183	0x3cef7d2f	0.029234497
184	0x3d4b93a4	0.049701348
185	0xbd34196e	-0.043969564
186	0x3cf8bb36	0.030362707
187	0xbc0adffe	-0.008476255
188	0xbcac6e64	-0.021048732
189	0x3c154e5b	0.00911292
190	0x3c9a3d9c	0.018828206
191	0x3c3ec07b	0.011642571
192	0xbce4905d	-0.027900869
193	0x3c864a5c	0.01639288
194	0xbcbc5994	-0.022991933
195	0xbd237cde	-0.039914005
196	0xbc659fa2	-0.01401511
197	0x3bfd8148	0.007736359
198	0xbc292be8	-0.0103254095
199	0x3d293192	0.04130704
200	0xbc2e2982	-0.010630013
201	0x3d1ece1a	0.038770773
202	0xbcb83b5f	-0.022489248
203	0xbd144840	-0.036201715
204	0x3d33e59d	0.04392015
205	0x3d1e7b14	0.038691595
206	0xbd16f8fe	-0.03685855
207	0xbd407144	-0.04698302
208	0x3c821257	0.015877886
209	0xbca8a094	-0.020584382
210	0xbb95a747	-0.00456706
211	0xbd43df27	-0.047820237
212	0xbc6ad046	-0.014331883
213	0x3c2ae961	0.010431618
214	0xbd08126e	-0.0332207
215	0x3c306c18	0.010767959
216	0x3d491ed6	0.049101673
217	0x3ce7374e	0.028224614
218	0xbd2cea1e	-0.04221546
219	0xbcabc6c6	-0.020968806
220	0xbd03dce0	-0.032193065
221	0x3c7b3a2a	0.015333692
222	0xbd12e61b	-0.035863977
223	0xbc1c6ba2	-0.009547146
224	0x3d11f4bb	0.035633784
225	0xbba3f608	-0.0050036944
226	0x3cd77de3	0.026305145
227	0x3d3e7e81	0.046507362
228	0x3d1056af	0.035238918
229	0x3ceb00d5	0.02868692
230	0xbc758b61	-0.014986844
231	0xbd450384	-0.048099056
232	0x3c8d7dae	0.017271843
233	0x3d4492b3	0.047991466
234	0x3bebaa3b	0.007191924
235	0x3ce41190	0.027840406
236	0x3aa319e1	0.0012443626
237	0x3c392400	0.011300087
238	0x3ce1193b	0.027477851
239	0xbd0541e4	-0.03253354
240	0xb99495c1	-0.00028340335
241	0xbd04bfc6	-0.032409452
242	0xbcf51dd0	-0.029921442
243	0x3d06b3e6	0.03288641
244	0xbd3bc345	-0.04584052
245	0xbc58be09	-0.013228902
246	0x3b67de1b	0.0035380188
247	0x3cb00a59	0.02148931
248	0x3c895239	0.01676284
249	0xbd11804b	-0.03552274
250	0x3d07193d	0.032983053
251	0xbd1e9b7d	-0.038722504
252	0xbd1c687a	-0.038185574
253	0x3c92cb46	0.017919194
254	0xbc1fe00c	-0.009758007
255	0xbc2a7e8c	-0.010406148

arith.constant5 f4 [11, 50]
0	0x3d34e8e3	0.04416741
1	0x3cff3b1e	0.031156119
2	0x3bded79c	0.006800605
3	0x3ce8a222	0.028397623
4	0x3c935c41	0.017988326
5	0xbbc9b954	-0.006156126
6	0x3c849e26	0.016188692
7	0x3d33aff6	0.04386898
8	0xbd3f5b79	-0.046718094
9	0x3cf5057a	0.029909838
10	0x3d0a0033	0.033691596
11	0x3cf2dd59	0.029646562
12	0x3ccd546c	0.02506467
13	0xbcbea0de	-0.023270067
14	0xbd12aa3c	-0.03580688
15	0xbbeaa163	-0.007160352
16	0x3d22cf0a	0.03974823
17	0x3d11d271	0.035601083
18	0xbcb0b024	-0.021568365
19	0x3d1e562f	0.03865641
20	0x3c48032e	0.012207789
21	0xbbe4db5f	-0.006984159
22	0x3cd915f7	0.026499731
23	0xbcd9ca31	-0.02658567
24	0xbd45094a	-0.048104562
25	0x3c849e27	0.016188694
26	0x3d090481	0.03345156
27	0xbc177b41	-0.009245695
28	0xbc403a61	-0.011732669
29	0xbd078d4f	-0.033093747
30	0x3c72dd58	0.01482328
31	0x3d176aca	0.036967076
32	0xbd414b2a	-0.047190823
33	0xbcd651ad	-0.026161993
34	0xbd0de3ca	-0.034641065
35	0x3c1d220a	0.009590635
36	0xbd0d0417	-0.03442773
37	0xbbb7cf4c	-0.0056094285
38	0x3ba59aa9	0.0050538373
39	0xbd0d4d7f	-0.034497734
40	0x3d03f267	0.032213595
41	0x3d228b97	0.039683904
42	0xbc117465	-0.008877848
43	0xbbb3c17c	-0.0054857116
44	0xbc826db3	-0.01592145
45	0x3ce74393	0.028230464
46	0xbcd926c9	-0.026507752
47	0x3d087293	0.03331239
48	0x3cf2d2c6	0.02964152
49	0xbd2e8bf6	-0.042613946
50	0xbb73e208	-0.0037213583
51	0xbc8aec3e	-0.016958352
52	0x3d184847	0.037178304
53	0x3c79e8e7	0.015253282
54	0xbc22c328	-0.009934224
55	0xbc9657f9	-0.018352496
56	0xbc7232c5	-0.014782612
57	0xbd2ec3be	-0.042667143
58	0xbd4e5653	-0.050375294
59	0xbcd4d60e	-0.025980975
60	0x3d418cfa	0.047253586
61	0xbd05f2e5	-0.032702345
62	0xbbab4ece	-0.0052279
63	0x3d344985	0.044015426
64	0xbd0bf210	-0.034166396
65	0x3c688dd5	0.014193972
66	0x3d2f686c	0.042824194
67	0x3d04e992	0.032449313
68	0x3cf3f51f	0.029779969
69	0xbc247a3b	-0.010038908
70	0xbb63187e	-0.003465205
71	0xbd2424f5	-0.040074307
72	0x3b9c1bb0	0.004764043
73	0xbd42375b	-0.047416072
74	0x3d16c38a	0.036807574
75	0xbc3fb458	-0.011700712
76	0xbc946a3b	-0.01811706
77	0x3c618593	0.013764757
78	0x3c04c1a8	0.008102812
79	0x3d3d4159	0.0462049
80	0x3aeba819	0.0017979174
81	0xbc9e8f0e	-0.019355323
82	0xbc8c8c07	-0.017156614
83	0x3ccebe04	0.02523709
84	0xbb1a1908	-0.0023513455
85	0xbd409a48	-0.047022134
86	0x3d3972f8	0.04527566
87	0x3d3068b6	0.04306861
88	0xbcaa69a7	-0.020802332
89	0x3d422561	0.04739893
90	0x3cf24f9a	0.029578973
91	0x3d016c68	0.031597525
92	0xbc6d07b1	-0.014467166
93	0xbce621e5	-0.028092334
94	0x3d2a2eb7	0.041548457
95	0xbce01649	-0.027354376
96	0x3bbdac38	0.0057883523
97	0xbce14fbb	-0.027503839
98	0x3b4dbcdd	0.003139309
99	0x3d2cf64c	0.042227075
100	0x3d3f3016	0.046676718
101	0xbcacec43	-0.021108752
102	0xbcb349d1	-0.021885784
103	0x3cc5f8ec	0.024166547
104	0x3c7319a6	0.014837658
105	0x3d3c4fe2	0.04597462
106	0x3d0d63b9	0.03451893
107	0x3d41e058	0.04733309
108	0x3bdd1c37	0.0067477482
109	0x3ca8ea9f	0.020619689
110	0x3d3d08ef	0.046151098
111	0x3d1dd002	0.03852845
112	0x3ccd19fc	0.025036804
113	0x3cc2a23a	0.023758996
114	0xbd38b344	-0.045092836
115	0x3bcb08d9	0.006196123
116	0x3c8ea609	0.017413156
117	0xbcf0362c	-0.029322706
118	0xbc847cea	-0.016172845
119	0xbaad6cf0	-0.0013231318
120	0xbd35a475	-0.04434629
121	0x3cece05b	0.028915575
122	0xbb15ce51	-0.002285857
123	0x3c724ac1	0.0147883305
124	0xbd42cb17	-0.047556963
125	0xbc8fd083	-0.01755548
126	0x3c2fdf35	0.010734369
127	0x3ae52f37	0.0017485385
128	0x3d1c4969	0.038155947
129	0x3c00f18f	0.007870092
130	0x3d0a1afa	0.033717133
131	0xbbb16125	-0.005413192
132	0xbd497dd0	-0.04919225
133	0xbc8bfa1b	-0.017087033
134	0x3b9c9050	0.0047779456
135	0xbd1d983f	-0.03847527
136	0xbafc7525	-0.0019260986
137	0x3cbc0911	0.022953542
138	0x3d30881c	0.043098554
139	0xbd2a5cc8	-0.04159239
140	0xbd271f36	-0.04080125
141	0xbcd71546	-0.026255261
142	0x3c572877	0.013132206
143	0xbd311bae	-0.043239288
144	0x3d130c14	0.03590019
145	0x3c0f321f	0.008739977
146	0xbcabf611	-0.020991357
147	0xbccca727	-0.024982048
148	0xbd0ba003	-0.034088146
149	0x3cc78ab3	0.02435813
150	0xbd2a2d00	-0.04154682
151	0xbccfa63d	-0.025347823
152	0xbd383c5d	-0.044979442
153	0xbc8939eb	-0.01675125
154	0x3bc816f9	0.006106254
155	0x3bc16890	0.0059023574
156	0xbd12be00	-0.03582573
157	0xbbdb1689	-0.006686036
158	0xbcca0879	-0.024662243
159	0xbc43028b	-0.011902462
160	0xbc26a56a	-0.010171274
161	0x3bb70ce4	0.0055862535
162	0x3c03f9db	0.008055176
163	0x3cdf6cf0	0.027273625
164	0xbd05abf3	-0.032634687
165	0x3c3b5fbe	0.011436401
166	0xbc60bc53	-0.013716775
167	0xbd21535f	-0.03938615
168	0x3c88bedf	0.016692577
169	0x3d06551b	0.032796007
170	0xbd29f2f9	-0.041491482
171	0x3d1acb15	0.03779133
172	0xbd07e339	-0.03317568
173	0x3c485767	0.01222787
174	0x3c1a19d1	0.009405569
175	0xbd26dc8b	-0.04073767
176	0xbba89861	-0.005145118
177	0xbd5188e4	-0.05115594
178	0x3ca48539	0.020083057
179	0xbcbdeb17	-0.023183389
180	0x3d35facb	0.044428628
181	0x3bfe2907	0.0077563557
182	0xbc9aded3	-0.018905079
183	0x3d46f06a	0.04856912
184	0xbcc9e72c	-0.024646364
185	0x3cf4c5df	0.029879509
186	0x3bbbecf0	0.0057350323
187	0xbd3d6d2b	-0.04624669
188	0xbd285817	-0.041099634
189	0xbd2530f8	-0.040329903
190	0x3d24c60f	0.040227946
191	0x3bc3ced5	0.005975584
192	0xbcc41dc3	-0.023939973
193	0xbb18cce4	-0.0023315484
194	0x3d418499	0.047245596
195	0x3d26d3b6	0.040729247
196	0xbd255d22	-0.04037202
197	0x3d4771c8	0.048692495
198	0x3d09507c	0.03352402
199	0xbc172c1e	-0.009226827
200	0x3d2a129d	0.041521657
201	0x3cc14d2d	0.02359637
202	0x3d432df3	0.047651242
203	0x3b42291e	0.0029626559
204	0xbc0ba210	-0.008522525
205	0xbcbffd81	-0.02343631
206	0x3c376ff3	0.011196124
207	0x3c0d6e07	0.00863219
208	0x3cc1a395	0.023637572
209	0xbd424cf9	-0.047436688
210	0xbcf96e21	-0.030448021
211	0xbc243233	-0.010021734
212	0xbcd03f2b	-0.025420746
213	0xbcacc48e	-0.021089818
214	0x3c9ef6d3	0.019404804
215	0xbc20b190	-0.009807959
216	0x3cc4ca47	0.024022235
217	0xbc08d5f1	-0.008351789
218	0x3b96c507	0.004601124
219	0x3ce59e24	0.028029509
220	0xbc0aa199	-0.008461379
221	0xbbc70344	-0.0060733873
222	0x3bb48d34	0.005509997
223	0xbce39142	-0.027779225
224	0xbcd3cf76	-0.025855761
225	0x3cc13ccc	0.02358856
226	0x3cc9126d	0.024544919
227	0x3c2bff81	0.010497929
228	0x3d16ff8d	0.036864806
229	0x3d2d87db	0.04236589
230	0x3d2cdf0f	0.042204913
231	0xbc1f48ae	-0.009721918
232	0x3ccee1f9	0.025254237
233	0x3c1ff46a	0.009762863
234	0x3d056498	0.032566637
235	0x3c9a90b2	0.018867824
236	0xbca87320	-0.020562708
237	0xbca9302e	-0.020652857
238	0x3d39f311	0.04539782
239	0xbd3a69ab	-0.04551093
240	0xbc503740	-0.012708485
241	0xbc964457	-0.018343134
242	0x3d4cc235	0.049989898
243	0xbbc97bbe	-0.0061487844
244	0x3cb56fa3	0.02214796
245	0xbb098429	-0.0020983315
246	0xbd0009a4	-0.031259194
247	0x3c9c4a7f	0.019078491
248	0xbcc17f00	-0.023620129
249	0x3d13f38b	0.036120933
250	0xbd01f38b	-0.0317264
251	0xbc352420	-0.011055976
252	0xbcebe6db	-0.028796604
253	0x3d3acb09	0.045603786
254	0x3cbe2d89	0.023215072
255	0xbc8c3877	-0.017116768

arith.constant6 f4 [309, 50]
0	0xbabf60c0	-0.0014600977
1	0x3a428400	0.0007420182
2	0xbc997146	-0.01873077
3	0x3d38d653	0.04512627
4	0x3c8e07da	0.017337728
5	0x3c490334	0.01226883
6	0xbce1552d	-0.027506435
7	0xbb80f130	-0.003935002
8	0xbd3fcda0	-0.04682696
9	0xbd4a2173	-0.049348306
10	0xbd35f193	-0.044419836
11	0xbd0112c6	-0.031512044
12	0xbca65040	-0.020301938
13	0xbc413274	-0.011791814
14	0xbc95d2c0	-0.01828897
15	0x3cbcb52e	0.023035612
16	0xbc44c3a8	-0.012009539
17	0xbcc0243a	-0.023454774
18	0xbb43f760	-0.0029902086
19	0x3d3e69c9	0.046487603
20	0x3d441367	0.047870066
21	0xbcf2e8e7	-0.029652072
22	0x3bed3468	0.0072389133
23	0x3c72b5a4	0.014813814
24	0x3d41b251	0.047289196
25	0x3d32086d	0.043465067
26	0x3c8ace6e	0.016944136
27	0x3c170f8c	0.009220015
28	0xbc6d7168	-0.01449237
29	0xbd194736	-0.037421428
30	0x3a699000	0.00089097023
31	0x3d0f5af7	0.03499886
32	0x3cb660da	0.02226298
33	0x3cc15e0e	0.02360442
34	0xbc9dd000	-0.019264221
35	0xbcb6c793	-0.022311961
36	0x3bb3e618	0.005490076
37	0xbcb3f493	-0.021967208
38	0x3d3fb971	0.04680771
39	0xbc2bb3c0	-0.010479867
40	0x3b6ab600	0.0035814047
41	0x3c17598c	0.009237658
42	0xbd286dba	-0.04112027
43	0xbd0b5c96	-0.034023844
44	0x3d149d83	0.036283027
45	0x3b345530	0.0027516596
46	0xbce4e3b3	-0.027940607
47	0x3c53040c	0.012879383
48	0x3b10dfa0	0.0022105947
49	0x3d004667	0.03131714
50	0x3c5808c5	0.013185685
51	0x3c9bc9c4	0.019017108
52	0xbc438623	-0.011933836
53	0xbc84b92d	-0.01620158
54	0xbd37a373	-0.04483361
55	0x3c4981af	0.012298985
56	0xbc604d82	-0.013690354
57	0xbcdb1e31	-0.026747795
58	0x3d113f0a	0.03546051
59	0x3d2c9b46	0.042140268
60	0x3d0a97b8	0.033836097
61	0x3d2e8e3c	0.042616114
62	0xbd1feec0	-0.03904605
63	0x3d209f25	0.039214272
64	0xbad3e4ae	-0.0016166174
65	0xbc85833f	-0.016297935
66	0x3d361c45	0.044460554
67	0x3d0aebcd	0.033916283
68	0xbcd5b6d4	-0.026088156
69	0x3cbef2dd	0.023309166
70	0x3d033eb5	0.032042224
71	0xbd10c3a2	-0.03534282
72	0xbd2443c7	-0.0401037
73	0xbd120a97	-0.03565463
74	0xbb15bdf6	-0.0022848821
75	0xbcaab5a8	-0.020838574
76	0x3d266971	0.0406279
77	0xbc8700a2	-0.016479794
78	0x3c492dc2	0.012278976
79	0x3c30df88	0.0107954815
80	0xbc220bb4	-0.009890486
81	0xbce410c9	-0.027840035
82	0xbc875586	-0.016520273
83	0xbc9d81d1	-0.01922694
84	0x3bf84513	0.0075765937
85	0xbd452f19	-0.04814062
86	0xbd1245dc	-0.035711154
87	0xbacb7a37	-0.0015524094
88	0x3d2f2456	0.042759262
89	0x3d467af7	0.048457112
90	0x3cd0a3c1	0.025468709
91	0xbccb7124	-0.024834223
92	0xbd08440c	-0.03326802
93	0x3d347014	0.0440522
94	0xbd3469ac	-0.04404609
95	0xbd1b669c	-0.037939653
96	0xbc591f69	-0.013252118
97	0x3d4b80ae	0.049683265
98	0xbc163477	-0.009167782
99	0x3c92abc8	0.017904177
100	0xbd30ee33	-0.043195914
101	0xbba26568	-0.004955936
102	0x3d166df9	0.03672597
103	0xba054180	-0.00050833076
104	0xbd117ea0	-0.03552115
105	0x3aced4c0	0.0015779957
106	0x3c9c8ace	0.019109156
107	0xbd3327d7	-0.043739166
108	0xbc78d328	-0.015187062
109	0x3c807d52	0.015684757
110	0xbcb0f38d	-0.021600509
111	0x3d49ebd3	0.049297165
112	0x398fbe80	0.0002741702
113	0x3d241309	0.040057216
114	0x3d0f7ef9	0.0350332
115	0xbce10c27	-0.027471615
116	0xbcb98da7	-0.022650553
117	0x3b014600	0.001972556
118	0xbb30f100	-0.0026999116
119	0xbc7a0be8	-0.015261628
120	0xbca7c1b3	-0.020478105
121	0x3bb74fb0	0.0055942163
122	0x3d3799f3	0.04482455
123	0xbd17f920	-0.03710282
124	0x3d3caf43	0.04606558
125	0xbcaf0a87	-0.021367325
126	0x3c85eb2e	0.016347494
127	0xbcfea34d	-0.031083727
128	0xbd357e77	-0.04431006
129	0x3ce2caba	0.027684558
130	0x3d47dc3d	0.04879402
131	0x3d323d09	0.04351524
132	0xbc019028	-0.007907905
133	0x3c98404e	0.01858535
134	0xbd419bbd	-0.047267664
135	0xbd018fd6	-0.031631313
136	0x3cc4df46	0.024032246
137	0xbb921230	-0.0044577345
138	0x3d238237	0.039919104
139	0xbd0a860d	-0.033819247
140	0x3cb08992	0.021549974
141	0x3c1327c0	0.008981645
142	0x3cfcae8e	0.030844953
143	0x3cdaf6c6	0.026728999
144	0x3d4c47c7	0.04987314
145	0xbd2ca2b6	-0.04214736
146	0xbc1d7d28	-0.009612359
147	0xbd16bbc6	-0.03680017
148	0xbcd33f5a	-0.025787044
149	0xbc302ab4	-0.010752369
150	0x3ccd2d10	0.025045902
151	0xbd08e300	-0.03341961
152	0x3cad3003	0.021141058
153	0x3caccd98	0.021094128
154	0x3d37917b	0.044816475
155	0x3b56fe4b	0.003280538
156	0x3d21ad21	0.03947175
157	0x3c616cda	0.013758862
158	0xbd33cb55	-0.043895084
159	0xbd35bf05	-0.044371624
160	0x3d197e45	0.037473936
161	0xbcf674b7	-0.03008495
162	0x3d1887ca	0.037238874
163	0x3c8b0071	0.016967984
164	0xbcfd7570	-0.030939788
165	0x3d22ddde	0.03976237
166	0xbd019457	-0.03163561
167	0xbc5ac2eb	-0.013352136
168	0xbd06fd7d	-0.03295659
169	0x3d0bd0af	0.034134563
170	0x3cb2c941	0.021824481
171	0xbd41c4d4	-0.04730685
172	0xbb7e4884	-0.0038800547
173	0xbd401efc	-0.04690455
174	0xbc7fab26	-0.01560477
175	0x3c90bbbd	0.017667646
176	0xbc8bbd66	-0.017058086
177	0x3cf9cf69	0.030494409
178	0x3c4c9931	0.012487696
179	0xbcc74c81	-0.024328472
180	0xbc186f04	-0.009303812
181	0xbca63e41	-0.020293357
182	0xbbceb83c	-0.0063085835
183	0xbd447931	-0.04796714
184	0xbbad131b	-0.0052818186
185	0xba64f501	-0.0008734018
186	0x3d4c4480	0.049870014
187	0xbc93cb7b	-0.018041363
188	0x3c0b9737	0.008519939
189	0xba13dd0d	-0.0005640544
190	0xbd269062	-0.040665038
191	0xbc806b7d	-0.015676254
192	0x3b13ac05	0.0022532952
193	0xbcd1dee6	-0.025618982
194	0x3c832e8a	0.016013402
195	0x3d37b6a3	0.04485191
196	0xbd1dab52	-0.038493462
197	0xbcd63883	-0.026149994
198	0x3c274ad5	0.010210712
199	0x3d38634d	0.045016576
200	0x3d437690	0.047720492
201	0x3c9a75cf	0.018855004
202	0x3bb33e26	0.005470055
203	0xbcd077bc	-0.025447719
204	0xbcf8b498	-0.030359551
205	0x3d49d9a9	0.049279843
206	0xbb9a8d10	-0.004716523
207	0xbd337ac3	-0.043818247
208	0xbd36db2f	-0.044642624
209	0x3bb8ad49	0.0056358916
210	0xbced6afc	-0.028981678
211	0x3c32c0ea	0.010910252
212	0x3b67fb43	0.0035397566
213	0x3bb39780	0.0054807067
214	0x3b8fcf86	0.0043887524
215	0x3cbaf0a1	0.022819819
216	0xba2ac912	-0.0006514947
217	0x3a3aee26	0.0007130824
218	0xbc7c4f28	-0.015399732
219	0xbc003b0d	-0.007826579
220	0x3d433ff7	0.047668424
221	0x3d23b4b5	0.039967258
222	0x3cb2bc58	0.021818325
223	0x3c2108bd	0.0098287435
224	0xbd3a422f	-0.045473274
225	0x3c124c80	0.008929372
226	0x3d08be99	0.033384893
227	0xbb8e4f65	-0.0043429607
228	0x3d3cd0dd	0.046097625
229	0xbcf33976	-0.029690485
230	0x3d158b71	0.036509935
231	0x3c95c25d	0.018281156
232	0x3d26d256	0.040727936
233	0xbca5cbb8	-0.020238742
234	0x3b83bafa	0.004020092
235	0x3d33704b	0.043808263
236	0x3d16bd92	0.036801882
237	0x3caf0596	0.021364968
238	0xbb886f23	-0.004163639
239	0x3d3d4410	0.046207488
240	0xbd28c78f	-0.04120594
241	0xbd221dc3	-0.039579164
242	0x3c878c12	0.016546283
243	0x3d042fe9	0.032272253
244	0x3b9705d7	0.0046088505
245	0x3c9c5fd3	0.019088661
246	0xbc802e0e	-0.01564696
247	0xbc21cf0b	-0.009876023
248	0x3c546612	0.012963789
249	0x3d2c3ff1	0.042053167
250	0xbd3c149a	-0.045918085
251	0xbcb8601f	-0.022506772
252	0xbcc878ec	-0.024471723
253	0xbc9cb30a	-0.019128341
254	0x3c7117e5	0.01471517
255	0x3d013723	0.031546723

arith.constant7 f4 [31, 50]
0	0x3ca90293	0.02063111
1	0x3c8f900f	0.017524747
2	0x3d3c9f15	0.04605015
3	0xbc7402fb	-0.014893289
4	0xbcbbaea6	-0.022910427
5	0x3c5490fa	0.012974018
6	0x3cfc05bb	0.030764451
7	0xbd2c38ce	-0.04204636
8	0xbd0cd0d3	-0.034378838
9	0x3c60bf60	0.013717502
10	0x3bff80e4	0.0077973474
11	0xbb030341	-0.0019990953
12	0xbc8e2871	-0.017353268
13	0xbb567896	-0.0032725683
14	0xbc691333	-0.014225769
15	0xbd382f17	-0.044966783
16	0xbc2f22b5	-0.010689427
17	0xbcb1ee14	-0.02171997
18	0xbcdab27f	-0.026696442
19	0x3cc12ca6	0.02358086
20	0xbcf39a06	-0.02973653
21	0xbc3f3fb0	-0.011672899
22	0xbd083175	-0.03325029
23	0x3be9302e	0.007116339
24	0xbceccc59	-0.028906034
25	0x3c94d3f4	0.018167473
26	0xbc80c6d0	-0.015719801
27	0xbce7d280	-0.028298616
28	0xbd4026d2	-0.046912022
29	0x3b889cca	0.0041690813
30	0x3d33110b	0.043717425
31	0x3c97020b	0.018433591
32	0x3cfeda1c	0.031109862
33	0x3d180fd8	0.037124485
34	0xbc06a2f6	-0.008217564
35	0x3d3a7c59	0.045528743
36	0xb99c7e8c	-0.00029848923
37	0x3c6beeab	0.014400165
38	0x3c820a92	0.015874181
39	0x3cae9efa	0.02131604
40	0xbcfa3aed	-0.030545676
41	0x3d2b8c3a	0.041881777
42	0xbca3b0c2	-0.019981746
43	0xbd3c079f	-0.045905706
44	0xbc987096	-0.018608373
45	0x3d0915bf	0.033468004
46	0xbd3ef253	-0.046617817
47	0x3cfacd8b	0.030615589
48	0x3cb6738d	0.022271896
49	0xbc09d928	-0.0084135905
50	0xbd0ca282	-0.034334667
51	0xbc348ca3	-0.0110198585
52	0x3d3bffeb	0.04589836
53	0xb9e3f824	-0.00043481693
54	0xbc89674e	-0.016772892
55	0x3cb8cc9b	0.022558501
56	0xbd4b1d2b	-0.049588364
57	0x3d1614dc	0.036640987
58	0xbd250e7e	-0.040297024
59	0x3d4b0b5c	0.04957138
60	0xbbe0966c	-0.006853869
61	0xbc82beda	-0.015960146
62	0xbc83be24	-0.016081877
63	0x3d4cdbd9	0.05001435
64	0x3d202462	0.039097197
65	0x3d3ad21c	0.045610532
66	0x3c1dfdae	0.0096430015
67	0x3cbce939	0.023060428
68	0xbca93993	-0.020657336
69	0xbc3c28c4	-0.011484329
70	0xbcfd0b57	-0.030889196
71	0x3bd598db	0.006518466
72	0x3c8fddc9	0.01756181
73	0xbc8d97cd	-0.017284298
74	0x3cb50b80	0.02210021
75	0xbb60d980	-0.0034309328
76	0x3d01194a	0.03151826
77	0x3d3d85e5	0.04627027
78	0x3d1faa52	0.03898079
79	0xbcce7ab1	-0.025204988
80	0x3d42f47a	0.047596432
81	0x3cc775ad	0.024348104
82	0xbd1a78eb	-0.037712973
83	0x3c4a8052	0.0123596955
84	0xbcfe1627	-0.031016422
85	0xbac741a3	-0.0015202056
86	0x3c80cfb9	0.01572405
87	0xbc725296	-0.014790198
88	0x3d23677a	0.039893605
89	0xbb0cddee	-0.0021494585
90	0xbd4b0f23	-0.049574982
91	0x3d407cba	0.04699395
92	0xbc08ec1b	-0.008357073
93	0x3c809209	0.015694635
94	0x3cfb4365	0.030671785
95	0x3d4aeef0	0.049544275
96	0x3d39aa04	0.045328155
97	0xbc2406a2	-0.010011347
98	0x3bca4f07	0.0061739716
99	0x3c8f2d63	0.017477697
100	0x3c425d80	0.011863112
101	0xbb871200	-0.004122019
102	0x3ce6e8e2	0.028187219
103	0xbcd853da	-0.026407171
104	0x3cee319a	0.029076386
105	0x3d271ef7	0.040801015
106	0x3d1b2d07	0.03788474
107	0x3d388b77	0.04505488
108	0x3d4686f7	0.048468556
109	0xbd3499b7	-0.044091906
110	0x3c206ecc	0.009792041
111	0xbd0187a4	-0.031623498
112	0xbcda6507	-0.026659502
113	0xbca29e5a	-0.019850899
114	0xbd4733a0	-0.048633218
115	0xbd02cbfd	-0.03193282
116	0xbd0b862a	-0.034063496
117	0x3d0c0e09	0.034193072
118	0xbc9000ba	-0.017578471
119	0xbcf47c00	-0.029844284
120	0x3d3e3407	0.046436336
121	0x3c68bf04	0.014205698
122	0xbc278b4c	-0.010226082
123	0x3c3c0eb4	0.011478115
124	0x3c58784c	0.013212275
125	0x3c03c6d8	0.0080430135
126	0x3d426f5d	0.047469486
127	0x3d3eb1f1	0.046556417
128	0x3d348d3d	0.044080008
129	0xbc98f2ec	-0.018670522
130	0x3cab4a5a	0.020909477
131	0x3d2bebd7	0.04197296
132	0xbcfa9ab3	-0.030591344
133	0xbd070e16	-0.032972418
134	0xbc7b3534	-0.015332509
135	0xbcd3ee60	-0.025870502
136	0xbba86400	-0.005138874
137	0x3be8fe18	0.0071103685
138	0xbd134d46	-0.035962366
139	0x3cf35b0e	0.029706504
140	0xbd4a6520	-0.049412847
141	0x3d047cbd	0.032345522
142	0xbc7d3d98	-0.01545658
143	0x3d060699	0.032721136
144	0xbb80ca00	-0.0039303303
145	0x3d49baf7	0.04925057
146	0xbce41f8d	-0.027847076
147	0x3cb11fe2	0.021621648
148	0x3cff05ce	0.031130698
149	0x3c3f34c0	0.011670291
150	0x3d229819	0.039695833
151	0x3c227eda	0.009917939
152	0xbc071e2f	-0.008246942
153	0x3aadb475	0.0013252633
154	0xbbdda4fe	-0.0067640534
155	0xbcd52fde	-0.026023801
156	0xbc97ca54	-0.018529095
157	0xbcc48cba	-0.023992885
158	0x3cdb9407	0.026803983
159	0xbc837793	-0.016048228
160	0xbcfd9277	-0.030953629
161	0x3cce891a	0.02521186
162	0xbad01c2b	-0.0015877535
163	0xbc25be81	-0.01011622
164	0x3ce0c10d	0.027435804
165	0x3d232307	0.039828327
166	0xbd43bac5	-0.04778554
167	0x3d0c5446	0.034260057
168	0xbd25218e	-0.040315203
169	0xbb542af5	-0.0032374237
170	0x3c095e51	0.008384303
171	0xbc6749b8	-0.014116697
172	0x3d1529ba	0.036416747
173	0x3d06d035	0.032913405
174	0xbbfc7900	-0.007704854
175	0xbd1b456d	-0.037908006
176	0xbcc111b1	-0.023568006
177	0xbb1e927d	-0.00241962
178	0x3ccb905c	0.02484911
179	0x3ccf901d	0.025337273
180	0x3d4694f5	0.0484819
181	0xbcdffd02	-0.027342323
182	0x3d193e3c	0.037412867
183	0x3ccb47d2	0.02481452
184	0x3b0a2654	0.0021079974
185	0xbd21f3c3	-0.03953911
186	0x3cf9db2a	0.030500013
187	0x3cde0e70	0.027106494
188	0x3b828a02	0.003983737
189	0xbd0a9802	-0.033836372
190	0xbd2692d0	-0.040667355
191	0x3c380d4d	0.01123364
192	0x3d09fb2d	0.033686806
193	0x3c962800	0.01832962
194	0xbd3bb6d9	-0.045828674
195	0x3cbf1fb9	0.023330556
196	0x3d2a636f	0.041598734
197	0xbcd7bd4f	-0.026335387
198	0xbd2f76b3	-0.04283781
199	0x3cde3012	0.027122531
200	0x3b8fc1ba	0.0043871077
201	0xbc8ec1dd	-0.017426426
202	0xbcc32fe0	-0.02382654
203	0xbce65e24	-0.028121062
204	0xbd1af872	-0.037834592
205	0xbc322348	-0.0108726695
206	0x3cea604a	0.028610367
207	0x3d35c7a9	0.044379864
208	0x3d346fa7	0.044051792
209	0xbc5af493	-0.013363975
210	0x3b41b1dc	0.0029555475
211	0x3ba941b2	0.005165302
212	0x3cd2c444	0.025728352
213	0x3d2b287e	0.041786663
214	0xbccff3a8	-0.025384739
215	0xbc0e6d94	-0.008693118
216	0x3c29b4fb	0.0103580905
217	0xbbcd67e8	-0.00626849
218	0x3c9f1246	0.019417893
219	0xbcc42b92	-0.023946557
220	0x3d1dab30	0.038493335
221	0x3bfae2c5	0.0076564276
222	0xbb3f8e1f	-0.0029228998
223	0x3bed0067	0.007232714
224	0x3c97c50d	0.018526578
225	0x3d29ce2b	0.041456383
226	0xbd1cbc8c	-0.03826575
227	0xbc01116b	-0.007877688
228	0xbd2229d2	-0.039590664
229	0x3d35e3cd	0.0444067
230	0x3d38f796	0.04515799
231	0xbbfa4ca1	-0.0076385294
232	0xbcebb8ce	-0.028774645
233	0xbbd2cad7	-0.006432872
234	0x3c302de2	0.010753127
235	0x3cab8ce2	0.020941202
236	0x3aa1eda9	0.0012354153
237	0x3c1ac32d	0.009445948
238	0xbcf69a66	-0.03010292
239	0xbd351a0c	-0.044214293
240	0xbd0d56dd	-0.034506667
241	0x3ce8b2f2	0.02840564
242	0xbd2bd737	-0.04195329
243	0xbd2d70c3	-0.042343866
244	0x3ccaebe9	0.024770694
245	0x3ac62650	0.0015117619
246	0x3d042095	0.032257635
247	0x3cfba46c	0.03071805
248	0xbb3c1e25	-0.002870449
249	0xbd56a9f9	-0.052408192
250	0xbc1a4437	-0.009415678
251	0xba00adb0	-0.0004908694
252	0xbad9a7ac	-0.0016605756
253	0x3d1485d0	0.036260426
254	0xbd2a0ae5	-0.041514296
255	0xbd0e10e8	-0.03468409

arith.constant8 f4 [128]
0	0xbba1ff23	-0.0049437447
1	0x3cbf5bca	0.023359198
2	0x3ae2c577	0.0017301281
3	0xbc3db949	-0.01157982
4	0xbd0d33ee	-0.034473352
5	0x3c7bf20e	0.015377535
6	0x3d1dd068	0.03852883
7	0xbb2a8580	-0.0026019514
8	0x3c7933c7	0.015210099
9	0xbd459eab	-0.04824702
10	0xbc589979	-0.0132201845
11	0x3d16654b	0.036717694
12	0x3c270845	0.010194843
13	0x3c9dac3f	0.019247172
14	0x3d0a8e5c	0.03382717
15	0x3c57a3da	0.013161624
16	0x3d10221f	0.03518879
17	0xbc612897	-0.0137425875
18	0x3cf94540	0.030428529
19	0xbc9da99f	-0.01924592
20	0xbd782ec2	-0.060591467
21	0x38c5b64d	9.427648e-05
22	0xbd08245b	-0.033237796
23	0xbc80af36	-0.015708547
24	0x3ce65b56	0.028119724
25	0xbcfbe7d9	-0.030750202
26	0xbb29964c	-0.0025876937
27	0xbca3468e	-0.019931104
28	0xbcfbb96c	-0.030728064
29	0xbb990912	-0.0046702707
30	0xbd056fbf	-0.032577273
31	0x3c823b2d	0.015897358
32	0x3ccc2d12	0.024923835
33	0xbd219cec	-0.039456293
34	0xbd29ebbe	-0.041484587
35	0x39959c61	0.00028536006
36	0x3d31568f	0.04329544
37	0x3afbf224	0.0019221944
38	0x3b9b776c	0.004744461
39	0xbc0fee77	-0.008784882
40	0xbb6fe3f2	-0.0036604372
41	0x3bbfefa2	0.005857424
42	0xbd15f784	-0.036613002
43	0xbb6b16bd	-0.0035871707
44	0xbc766964	-0.0150397755
45	0x3cd5dc7c	0.026106112
46	0xbcb8039f	-0.022462664
47	0xbc253752	-0.01008399
48	0xbd54b25c	-0.05192791
49	0x3caa6529	0.02080019
50	0x3c4788ed	0.012178642
51	0xbcf29347	-0.029611243
52	0x3c8747a9	0.016513662
53	0xbca26341	-0.019822719
54	0xbd4ca38e	-0.049960665
55	0x3cd680e1	0.026184501
56	0xbbf38560	-0.007431671
57	0xbcec432f	-0.02884063
58	0x3c34a273	0.011025059
59	0xbd7c64db	-0.06161962
60	0x3c4a4e42	0.01234776
61	0xbc004f9b	-0.007831479
62	0x3d9854fb	0.07438084
63	0xbd2fd7f7	-0.04293057
64	0xbd0cc5ba	-0.034368254
65	0xbc1ddd3a	-0.009635264
66	0xbbfa23b9	-0.007633653
67	0xbca252b7	-0.019814832
68	0x3c3c772f	0.011503025
69	0x3a8831ec	0.0010390854
70	0xbd9a3709	-0.075300284
71	0x3b33a34c	0.0027410565
72	0x3c44eb03	0.012018922
73	0xbd300692	-0.042975016
74	0x3ad80cda	0.0016483322
75	0x3cbd1495	0.023081103
76	0xbcde4057	-0.027130289
77	0x3caa5f40	0.020797372
78	0x3c3f8b04	0.011690859
79	0x3cae996c	0.021313392
80	0x3c85f37a	0.01635145
81	0x39dbeded	0.00041948204
82	0xbd11ad74	-0.03556581
83	0x3d64338d	0.055713225
84	0x3ca7336b	0.02041026
85	0x3c85c504	0.016329296
86	0xbca4d5ca	-0.020121474
87	0xbca216f4	-0.019786336
88	0xbd08fc32	-0.033443637
89	0xbc4cdd1e	-0.01250389
90	0x3b954990	0.0045558885
91	0x3b9652da	0.0045875134
92	0x3ce26238	0.027634725
93	0xbd05e0d6	-0.032685123
94	0x3c98996a	0.018627841
95	0xbbfb1744	-0.0076626856
96	0x3ca5ae7c	0.020224802
97	0xb9061793	-0.00012788018
98	0xbb3eb332	-0.0029098508
99	0x3a857c11	0.0010184069
100	0xbb831b64	-0.004001068
101	0xbc91f23b	-0.0178157
102	0xbcca2aa8	-0.024678543
103	0xbd7074a1	-0.058704976
104	0x3bdea7ce	0.006794906
105	0x3d30f084	0.043198124
106	0xbb35ad38	-0.0027721655
107	0x3d426b29	0.047465477
108	0xbd305433	-0.04304905
109	0x3c8cbe98	0.017180726
110	0x3c5c9ffd	0.013465879
111	0xbc9ba01e	-0.018997248
112	0xbbdadc19	-0.0066790697
113	0xbd831bd2	-0.06401791
114	0x3c0e92d6	0.008702001
115	0xbc2c29ea	-0.01050804
116	0x3c972f91	0.018455299
117	0xbdb421ea	-0.08795531
118	0x3c1b57a3	0.009481343
119	0xbd0c23be	-0.034213774
120	0x3ca55737	0.020183189
121	0x3ca54f54	0.020179428
122	0xbcf52aa6	-0.029927563
123	0x3c9a468b	0.018832466
124	0x3c289fe9	0.010292032
125	0x3bb6c629	0.0055778218
126	0xbd922126	-0.07135229
127	0xbcad1cd3	-0.021131909
